Section06/autoencoder.pth (torch, 885110 bytes, 16 tensors)

encoder.0.weight f4 [128, 784]
000000 c5 e2 93 bc a4 b6 aa bb b0 92 a0 3c c8 bc ee 3b
       -0.018052468 -0.0052097607 0.019601196 0.007285688
000010 f3 0b 0e 3d a0 a6 72 bc 3a 50 a9 3c 04 6f 23 3c
       0.034679364 -0.014810234 0.020668138 0.009975199
000020 1c a8 1b 3c 3c 35 58 3c b7 90 0f 3d d2 e8 0f bc
       0.00950053 0.013196286 0.03505012 -0.008783536
000030 68 01 d0 3b 4a 0b 86 3c 7a 30 b9 bc fa e3 08 bd
       0.006347824 0.016362805 -0.022606123 -0.03342054
000040 8a ed 2f bc a6 c6 6f bc f6 25 f8 3c 30 68 0b 3c
       -0.010737786 -0.014634764 0.030291539 0.008508727
000050 55 fa cd bc d6 25 cf 3c 1a ed 96 3c ae 18 f8 3c
       -0.025143782 0.025286596 0.018423606 0.030285206
000060 b8 37 3f 3c ea 0b ef 3c d0 4b 71 3b 20 76 0e bc
       0.011670999 0.029180486 0.003681887 -0.008695155
000070 40 9b 4e 3a 7a 16 8d 3c fa 3f 89 bc 52 c4 4b bc
       0.00078814104 0.017222632 -0.01675414 -0.012436943
000080 88 cf d2 3b ac 68 c4 bc 8e d2 f7 3c 7c 2a a5 3c
       0.006433431 -0.023975693 0.030251767 0.02016186
000090 9d fc 67 bb 87 e5 f7 3c 17 4d 8f be ae 76 e3 bd
       -0.0035398372 0.030260814 -0.27988502 -0.11106621
0000a0 74 d8 68 3e dd 20 39 3e c3 44 00 bc 9e e7 ca 3c
       0.2273882 0.18078943 -0.007828894 0.024768647
0000b0 51 98 ae 3d d0 32 3a bd 55 03 91 bc f9 36 80 bd
       0.08525146 -0.045458615 -0.017701784 -0.06260485
0000c0 0f 40 db bc 2d f0 5d bd c8 c0 8e 3c 03 1d 0b bc
       -0.026763944 -0.054184128 0.01742591 -0.008490804
0000d0 a6 47 c9 3c ca c7 ed bc 58 8c 44 bc 90 a5 b9 3b
       0.024570297 -0.02902593 -0.011996351 0.0056654885
0000e0 34 ec 54 3c 4a 70 98 3c 86 63 ad 3c 4a 76 61 3c
       0.012995768 0.018608231 0.02116562 0.0137611125
0000f0 c8 ec 5b bd 3a 1e 26 bb 1c ec 27 bc 0d c2 aa bc
       -0.05369261 -0.0025347606 -0.010249164 -0.020844484
000100 35 85 01 bd 46 e6 c1 bd 4b f1 a9 be 62 d6 72 bd
       -0.031621177 -0.09467749 -0.33191904 -0.059286483
000110 e0 fe 21 3e a6 8e cf be 5f 07 78 bf 77 ad 0d bf
       0.15819883 -0.4053852 -0.9688625 -0.5534281
000120 53 71 c0 be 44 78 bc be 91 26 1d be b3 54 cc bd
       -0.3758646 -0.36810505 -0.15346743 -0.099770926
000130 3b 5e ea bd 14 55 b6 bd 35 a1 c6 bd a5 8f 90 bd
       -0.11443754 -0.08902946 -0.096987166 -0.07058648
000140 fd 6e 95 bd 10 9a 4b bc b0 5f 61 bb b0 9f 8d 3b
       -0.0729656 -0.012426868 -0.003438931 0.0043220147
000150 48 b4 fb bb 6e 22 da bc 3b 26 84 3d 49 6f 55 3d
       -0.0076814033 -0.026627745 0.064526044 0.052108083
000160 be 17 a3 bc 58 55 31 3d 26 12 8d bd ed a6 c2 be
       -0.019908782 0.04329428 -0.06888227 -0.3801798
000170 51 4e fa 3d 62 bd 18 3c 0d e2 c7 bc 74 50 9b be
       0.12221969 0.009322496 -0.024399782 -0.30334818
000180 19 90 13 bf 34 a3 96 bd 0e 91 39 bd 88 2c 1c bf
       -0.5764175 -0.07355347 -0.04530435 -0.6100545
000190 15 c5 fa be 20 65 50 bf e8 b1 54 bf 81 ed 54 bf
       -0.48978487 -0.81404305 -0.83083963 -0.831749
0001a0 ae 9e 43 bf 87 01 28 be 51 09 0f be f8 0c a4 bd
       -0.76414 -0.16406833 -0.13968398 -0.08010286
0001b0 4d 26 a1 bc d1 57 57 bd a5 79 7b 3c ba 22 d4 bc
       -0.019671584 -0.052573983 0.015348827 -0.025895465
0001c0 2e a3 de bc dc 93 52 bc 57 81 0b 3e 49 82 7f 3e
       -0.02717742 -0.012852635 0.13623558 0.24952044
0001d0 d0 fd c7 3b 45 bf 68 3e 94 83 0a be 5f 1d a0 3e
       0.006103255 0.22729214 -0.13526756 0.31272408
0001e0 7d 2c b1 be 39 20 db be f3 14 b7 bd ec 7b 79 3b
       -0.34604254 -0.4279802 -0.089395426 0.0038068248
0001f0 55 65 2f bd 67 2f fd 3d a0 88 22 be 8a df a9 be
       -0.042821247 0.12362557 -0.15872431 -0.3317836
000200 ae 89 0f 3e de 5b 37 3e bd 0a 2b bf 8e 60 5b bf
       0.14017364 0.17906138 -0.6681326 -0.85694206
000210 98 2c 17 bf a9 6d a0 be 4e 58 f6 be 89 fb be be
       -0.5905242 -0.31333664 -0.48114246 -0.3730128
000220 fe 74 e4 bd 1e 9f 16 3d e9 e8 5b 3c 92 45 da 3b
       -0.11155127 0.03677284 0.013422229 0.0066611255
000230 bc 9c d2 3c e6 46 64 bc b3 1d 37 3d 97 8a 8e 3e
       0.025709502 -0.013932919 0.044706058 0.2784011
000240 81 40 ae 3e ce 17 ed 3e 7f 87 fb 3d bd 98 77 be
       0.34033588 0.46307224 0.12281703 -0.24179359
000250 b5 a8 30 be c8 9f b5 be 7a 4d 41 bd 70 d1 ba 3d
       -0.17251857 -0.35473466 -0.047193028 0.09121978
000260 87 35 82 be 3e bf 8c be 3c ba 8d be d0 b8 be be
       -0.25431463 -0.27489656 -0.27681148 -0.37250376
000270 8b 7b d9 be 79 bd 3b bf e0 04 1c bf fb 3a d4 bd
       -0.42477068 -0.7333599 -0.6094494 -0.10362812
000280 94 0a 22 3e ab 1d 4e be b6 26 d5 bd 24 44 1a bf
       0.15824348 -0.20128505 -0.10407774 -0.60260224
000290 a7 8b a0 3e 64 6e 4d bd 25 1d 56 bd 21 5b 49 3c
       0.31356546 -0.050154105 -0.05227389 0.012289793
0002a0 c0 a6 d5 bb 6d 49 24 3d 24 48 88 bd cb 79 e4 3e
       -0.0065201223 0.040109087 -0.06654385 0.4462417
0002b0 64 dc d0 3e 18 ed 40 3e 84 07 94 bd b7 6b a7 bb
       0.40793145 0.18840444 -0.07227996 -0.005109276
0002c0 c2 11 c5 be 02 2d 94 be d8 e5 25 be 78 56 21 bd
       -0.3849011 -0.28940588 -0.1620096 -0.039389104
0002d0 31 31 5e bd 5f aa fd bc fb 96 9c bd 4e fe 33 be
       -0.05424613 -0.030965028 -0.07645985 -0.17577478
0002e0 10 6e 1e be eb f2 a2 be 4f e4 96 be d9 08 85 3d
       -0.15471673 -0.31825957 -0.2947106 0.06495828
0002f0 02 d3 9a be cf 36 dc bc 52 e1 4c be 26 13 d7 be
       -0.3023911 -0.026881604 -0.20007828 -0.42006797
000300 4a 3e 1d bf 31 97 17 bf d6 54 9d be 88 c1 a4 bd
       -0.6142317 -0.59215075 -0.30728787 -0.08044726
000310 d0 d7 64 3d 90 dc 3a be 59 a1 86 be 84 72 35 3f
       0.055869877 -0.182482 -0.26294973 0.7087786
000320 12 85 35 3e b2 5a 46 3e 15 d8 fe 3e 2e 52 14 3e
       0.17726544 0.19370535 0.49774233 0.14484474
000330 a1 bd ab 3d 4a 87 c0 bd 1d 1d c8 ba 3a d6 09 3d
       0.08385778 -0.09400804 -0.0015267465 0.033651568
000340 8e 10 0d 3e d2 29 2d bd 35 25 ad be eb 69 87 be
       0.13775846 -0.04227621 -0.3381745 -0.26447996
000350 9d 8c ee be ab 68 67 be e3 55 b7 bd da 83 a1 3d
       -0.46591654 -0.22598521 -0.089519285 0.07886477
000360 d9 16 11 be 54 a5 82 3d 0d de 85 be f4 eb 93 3d
       -0.14168872 0.0637919 -0.26145974 0.07222739
000370 c3 8f 54 be 07 26 f8 be 65 41 a4 be 2d 6f 15 be
       -0.20757966 -0.48466513 -0.32081142 -0.14593191
000380 81 8c d9 3c 08 d9 52 3c b8 22 54 3e f6 bc 39 3f
       0.026556255 0.012869127 0.20716369 0.72553957
000390 7c 88 b3 3e 91 85 31 3e ff 4e b8 3e ee 0f bc 3e
       0.35065067 0.17336108 0.3599777 0.36730903
0003a0 a5 e8 a2 3e d3 43 b3 3d 87 7a 8a bd 77 10 4d 3e
       0.3181812 0.08753171 -0.067616515 0.20025812
0003b0 b7 e9 4d 3e 41 1b 38 3e e6 39 4e bc f3 34 89 3d
       0.20108686 0.17979147 -0.012587046 0.066995524
0003c0 c2 78 4c 3d 24 db cb 3d 7a ec 45 bd ce a6 23 3e
       0.04991985 0.09953907 -0.048321225 0.159816
0003d0 b2 74 b1 bd 96 d4 f6 3a 6b 2e 82 3d f4 e0 1c be
       -0.08664836 0.0018831666 0.0635651 -0.15320188
0003e0 cd 0a a9 be 9b 3a 03 bf 19 4c 3f bf 39 c6 49 bf
       -0.33016053 -0.512613 -0.7472549 -0.7881809
0003f0 53 06 42 be 6f 69 db 3e d3 07 dd 3d b2 b4 21 3f
       -0.18947725 0.42853877 0.10792508 0.63166344

encoder.0.bias f4 [128]
000000 83 f0 2e 3f 0e a8 80 3b fe 58 b0 be e5 97 5b bc
       0.6833574 0.0039262837 -0.34442896 -0.013402914
000010 5c ef 03 3d 4a e8 e2 bc f1 02 08 3e 36 fe d4 3e
       0.032210693 -0.027698655 0.13282372 0.41600198
000020 9b 46 5e 3e 1d 7d 9b 3f 58 38 41 3e 87 0b c8 be
       0.21706621 1.2147557 0.1886915 -0.39071295
000030 aa ce 27 3e 81 be b4 be c9 0a 26 3c b1 43 41 bc
       0.1638743 -0.35301593 0.010134407 -0.011795924
000040 4c fb ab bc 60 86 85 3e 74 10 72 3b d1 15 af 3d
       -0.020993851 0.26079082 0.0036936076 0.08549083
000050 b6 8e f0 3d 2f 2b 69 bc 85 19 69 bd fa 8d 98 3e
       0.1174597 -0.014231487 -0.056909103 0.2979582
000060 b8 34 cb be 53 cb f2 3c a9 92 06 bf 9d 7f 8d 3f
       -0.3968866 0.029637968 -0.52567536 1.105457
000070 cc db 2c 3f e2 aa c9 be 2b a1 29 3e 92 6c 2d bd
       0.67522883 -0.39388186 0.16565387 -0.04233987
000080 19 32 bc bc 98 af 24 bf 71 cb 26 3e b4 7d 57 be
       -0.022973107 -0.64330435 0.16288544 -0.21044046
000090 b9 af 87 be 65 07 9b 3c 98 df 84 bb ca 86 f4 be
       -0.26501253 0.018924424 -0.0040549748 -0.47759086
0000a0 4a 1f 56 3e c0 95 5b bd 9f cd 9d 3e fc 7d 0e 3f
       0.20910373 -0.05360961 0.3082094 0.55660987
0000b0 f0 73 08 3f 0e 3d 18 bd 7b ef c8 3c 10 2e 84 3d
       0.53301907 -0.0371676 0.024528256 0.06454098
0000c0 95 2e 93 3e 0b 50 d9 be bd 78 c8 3e 50 14 4f bb
       0.28746477 -0.4244388 0.39154616 -0.00315978
0000d0 23 e0 ef bc 5a 97 d0 be 9c dc 0a 3f 02 93 1a bd
       -0.029281681 -0.40740472 0.54242873 -0.037737854
0000e0 b3 4d 19 3f 6d 7a 12 3e 6a ca 98 be fe 4a 00 bd
       0.59884185 0.14304514 -0.2984193 -0.031321518
0000f0 ae f8 39 bd 71 e5 de bd d1 21 36 bd a1 fb 2f 3f
       -0.045403175 -0.10883606 -0.044465844 0.6874333
000100 1c 98 68 3f 58 83 93 ba 06 1b 1d bd 67 f4 b0 be
       0.908571 -0.0011254353 -0.03835585 -0.34561464
000110 83 99 8a 3b 2f 58 06 be 7e fb 85 3e cc de d4 bc
       0.004229726 -0.13119577 0.26168436 -0.025985144
000120 e3 39 33 bf b3 da 42 3d 41 1d 42 be 9f fc c1 3c
       -0.70010203 0.04757185 -0.18956472 0.02368003
000130 90 e3 06 bf a6 73 0a 3f 03 b1 9a be 3a 8e 19 bd
       -0.5269098 0.54082716 -0.30213174 -0.037489153
000140 42 f7 83 3f c9 fb 45 3e b0 33 15 bf dc 3b 8f bd
       1.0309832 0.1933433 -0.58281994 -0.06993839
000150 d5 8c a8 3e 96 95 ea 3e 77 6d d4 be 37 c1 25 bd
       0.32919946 0.4581725 -0.41489765 -0.040467467
000160 7a 16 98 be 08 68 05 3f d0 1f 24 3f 1e ed f1 bd
       -0.29704648 0.52111864 0.6411104 -0.11812805
000170 73 10 09 bd 80 de c5 bc be c7 ec bc d6 7a 9a 3c
       -0.033462953 -0.024153948 -0.028903838 0.0188574
000180 e9 8a 3e 3f 16 eb 1c bf 37 23 67 bf 93 e9 98 3e
       0.7443071 -0.6129621 -0.9028811 0.29865703
000190 50 3f f8 3e 2e 0f 06 bc 0d ab 1f bd 20 73 2c 3f
       0.48485804 -0.00818233 -0.038981486 0.67363167
0001a0 07 52 49 bf d5 49 f1 3d 21 d0 34 3c c2 b9 76 be
       -0.7864079 0.117816605 0.01103595 -0.24094298
0001b0 eb 60 6e 3f 50 af b5 bb c3 a2 9f bd f5 d8 98 3e
       0.93116635 -0.0055445805 -0.07794716 0.29853025
0001c0 0d 2d 91 bc 00 ac 89 bc 01 44 92 be d2 2d 50 bb
       -0.017721677 -0.016805649 -0.28567508 -0.0031765592
0001d0 48 2a 3b 3f 41 91 d8 be a8 16 df bc 32 92 d7 bd
       0.7311139 -0.4229832 -0.027232483 -0.105259314
0001e0 32 f9 cd 3e 89 74 ae 3e e9 d7 68 3f bf 65 08 bd
       0.40229183 0.34073284 0.9095445 -0.033300158
0001f0 0e 20 2e be 6a a5 55 3e d2 55 02 3e 8e fc 4a bf
       -0.17004415 0.20863882 0.1272805 -0.7929162

encoder.2.weight f4 [64, 128]
000000 bc 57 a1 bd 33 91 6a bd 24 7c d9 3c 84 7d c7 bc
       -0.07878062 -0.05726738 0.026548453 -0.024351843
000010 36 d3 99 bd 95 7c 66 3d 72 1e 18 3c 86 e1 7d 3d
       -0.075109884 0.056271154 0.0092846025 0.061982654
000020 b7 f9 e7 bd a0 65 7f 3d 46 55 74 bd d5 0f 52 3c
       -0.11326926 0.062352777 -0.059651636 0.012821157
000030 a8 21 8a 3d b8 63 1a bd e3 a8 90 bc 69 13 82 bd
       0.06744701 -0.037692755 -0.017658656 -0.063513584
000040 ca 6e 4c bc fe b2 88 bd ea 54 57 3d 7b f9 b2 bd
       -0.012477586 -0.06674765 0.052571215 -0.08738991
000050 c7 e9 db bd 85 d0 2a 3d cf 8a 37 3d 80 c2 c7 39
       -0.10737949 0.041702766 0.044810113 0.00038101152
000060 b8 61 89 bd a2 08 be bd a4 e4 c9 bd 64 2f e4 3b
       -0.067080915 -0.0927899 -0.09858063 0.006963657
000070 c0 8f 20 3c 18 e2 8e bd 91 a5 c8 3d 35 d5 69 bd
       0.009799898 -0.06976718 0.09797204 -0.057088096
000080 88 78 1f bd 13 69 89 bd f6 6f 6f 3c 1c e8 6f bd
       -0.038933307 -0.067094944 0.014614096 -0.058570966
000090 75 b1 23 bd 77 4f 99 3c f9 e5 2b 3d 30 d8 3f bd
       -0.039964158 0.01871465 0.041967366 -0.04683703
0000a0 f8 8f 5d bd aa 77 5b bd 0f 7b 1d bd 57 1e a7 bd
       -0.054092377 -0.053580917 -0.038447436 -0.08160084
0000b0 36 90 aa bd 0f 99 2a 3d 0e b2 a8 bb 7d 93 bd bd
       -0.08328287 0.041649874 -0.005148179 -0.09256647
0000c0 30 b6 52 3b 53 84 90 bd 53 59 fe 3c 72 ce 93 3d
       0.003215205 -0.07056489 0.031048452 0.07217111
0000d0 ab 7e 96 bd b3 1f 02 bd 76 d7 a9 bd cf c2 ba bd
       -0.07348379 -0.031768512 -0.08293049 -0.09119188
0000e0 09 cc 03 3d fb 3d 43 3d b2 5c 33 bd a3 22 de 3c
       0.032177005 0.04766653 -0.043789573 0.027116125
0000f0 b2 e7 a9 3d 33 6c 77 bb e4 44 12 bc b0 a5 8e 3d
       0.082961455 -0.00377537 -0.008927558 0.06965196
000100 ae b8 69 bd 53 b0 5b 3c 2b cf 43 bd 62 06 b6 bd
       -0.05706089 0.013408738 -0.047804993 -0.08887936
000110 bb 1f 91 3d bf 02 c4 bd 57 10 27 bd 59 5a f1 b9
       0.0708613 -0.09570836 -0.040787067 -0.00046034416
000120 a5 0f ae bd 33 d3 25 bd 2b ef 55 3d ec 0f a3 3c
       -0.08499078 -0.04048462 0.05223004 0.019905053
000130 11 51 50 3d f3 c8 16 3d 35 c4 82 bb d5 6a 72 3d
       0.05085856 0.036812734 -0.003990675 0.059183914
000140 cc ec d5 bb 10 0f 9b 3d a3 b0 d5 bc cd 61 1b 3d
       -0.0065284725 0.07571232 -0.026085204 0.037935067
000150 c2 25 9d bc c6 35 af 3c 45 41 19 bd 89 cb 7d 3d
       -0.019183043 0.021387946 -0.03741576 0.061961684
000160 f2 c3 21 3d 93 c5 a2 3c 13 55 8c bc 52 c1 db bd
       0.03949351 0.019869601 -0.01713041 -0.10730232
000170 ee ef b4 3c b9 2b a7 bc e8 3d 36 bd b8 66 95 bd
       0.022087064 -0.02040659 -0.044492632 -0.07294983
000180 fd 85 56 bd a6 38 85 bd 68 d6 c2 bb ee 42 33 3d
       -0.052373875 -0.065049455 -0.0059459694 0.043765
000190 f9 cf 48 3d 9d 1d 2d 3d 5b 5b ad 3c 06 a0 97 bd
       0.049026463 0.04226457 0.021161726 -0.07403569
0001a0 4b 3a 56 bd 7f 09 81 3c 02 74 21 3c 71 05 f5 3c
       -0.052301686 0.015751598 0.009854319 0.029909821
0001b0 28 43 92 bd 9d 64 a2 3d 81 5d 7d bd 45 1f cc 3c
       -0.07141715 0.07929347 -0.06185675 0.024917254
0001c0 88 9a 45 bd 8d 91 7f 3c 97 bc 46 3d c7 9a be bd
       -0.048243076 0.015598667 0.048519697 -0.09306865
0001d0 bf ed 8c bd 85 fd 5e bd 6f 7f 26 3c 14 43 36 3d
       -0.06881284 -0.054440994 0.0101622185 0.044497564
0001e0 1a 95 66 3b ec 77 cd bd e9 25 4c bd 59 89 88 3d
       0.0035184086 -0.10032639 -0.04984084 0.06666822
0001f0 33 49 97 3d 09 96 bc bd 8a de 7e bc af d2 8c bd
       0.073870085 -0.092083044 -0.015555987 -0.06876122
000200 17 f4 2f 3e c8 3b 10 3d f6 16 ae 3b 5c 44 97 bb
       0.17182957 0.03521326 0.0053127958 -0.0046163034
000210 96 cb 5d 3c c6 a4 c0 3b 6d ae 9c 3c 19 14 0f 3d
       0.013537308 0.0058790175 0.019126141 0.034931276
000220 5c 22 9c 3e cd 7c f4 3d 2e 01 c8 bd 06 c9 bb bb
       0.30494964 0.11937866 -0.0976585 -0.005730751
000230 b8 49 61 3e af 48 e8 be 5a 6a 11 bd 43 a6 9e bd
       0.22000778 -0.45367953 -0.035501815 -0.07746556
000240 3a d2 9f bd 2b 1c aa 3e c9 6f 15 bb 8f 08 ba 3d
       -0.078037694 0.33224615 -0.0022802225 0.09083664
000250 ff 0f 14 3e 21 5e b8 3d 57 4d 26 bd e1 61 45 3b
       0.14459227 0.09002329 -0.0406011 0.0030118155
000260 b6 d0 09 bc 54 6c d4 bc 3a f6 7a 3c 68 87 d0 3b
       -0.008411577 -0.025930561 0.015317494 0.006363798
000270 c0 3e c8 bd 7c c8 28 3e 80 95 9a 3d 24 3c 38 3d
       -0.097775936 0.16482729 0.07548046 0.04497923
000280 f7 d2 94 3d b4 be a7 bd e0 e5 a6 3c 51 f8 0f 3e
       0.07266801 -0.081906706 0.020373285 0.14059569
000290 61 78 3f be c5 1c 19 bd 9a 0b be bc 29 d2 1e bd
       -0.18698265 -0.037380952 -0.023198891 -0.038774643
0002a0 da 5f 35 3e b9 8e 6b bd 49 72 6f be 8f 68 64 be
       0.17712346 -0.057509158 -0.2338344 -0.22305511
0002b0 83 71 d4 3d 75 91 de bc 4a a2 70 bd 44 dc c6 3e
       0.10373213 -0.027168969 -0.05874852 0.38839924
0002c0 c0 c5 5a be 56 a4 3a be bb cd 01 be 81 02 94 3b
       -0.21364498 -0.18226752 -0.12676136 0.0045169
0002d0 47 8f 6e 3c bf 8d 9c 3e b1 6b ef be 98 bd c9 3b
       0.014560527 0.30576894 -0.4676185 0.0061566345
0002e0 e1 51 35 be ce 1d 8a 3c 04 4f 2b 3e e5 24 00 3d
       -0.17707016 0.016859915 0.16729361 0.031285185
0002f0 ee fb 17 bb c2 15 f9 bd 68 dc 88 bc ef e7 cf bd
       -0.0023190933 -0.12162353 -0.01670666 -0.1015166
000300 52 ac 59 3e 7c e0 b2 bb ed ce 80 3d 58 98 74 bc
       0.21257141 -0.0054588895 0.06289468 -0.0149289
000310 3a 15 b1 39 35 45 a6 bd 8a 12 a2 be d9 a8 2a bc
       0.00033775886 -0.08118669 -0.3165477 -0.010416233
000320 34 1f 4a 3e 81 18 2a bd 78 2c 49 be e7 be 78 be
       0.19738466 -0.041527275 -0.1964587 -0.24291573
000330 22 91 66 3d ad 61 85 3d 02 48 a9 be 3e e2 09 bd
       0.056290753 0.06512771 -0.3306275 -0.033663027
000340 0d f4 dc bd 50 21 1e bd 39 af 74 bd a6 92 80 3d
       -0.107887365 -0.038605988 -0.059737418 0.06277971
000350 b3 e7 16 3e 1e 54 87 3d 41 49 62 bd 9b bb a5 3d
       0.14736824 0.06607841 -0.05524564 0.080924235
000360 9d a7 dc bd a2 25 52 3e 2e 35 02 3e ec 44 43 3e
       -0.10774157 0.20522168 0.12715599 0.1906926
000370 14 1f c1 3c 79 ef 7f 3d bd 21 42 3d af fe a1 3d
       0.02357439 0.06248424 0.047395457 0.07909905
000380 3a f2 bd be 60 64 f5 bd c0 7c 6c 3d 2c 1f 31 3e
       -0.37098867 -0.11982036 0.05773616 0.17297047
000390 52 a4 3f bd 88 3f 5d 3b 3f c2 03 bd 8d a7 14 be
       -0.046787567 0.0033759791 -0.03216767 -0.1451704
0003a0 59 5d 47 3d 6f be 05 bc cd ac 8a bd eb 55 fb 3c
       0.048673008 -0.008163079 -0.067712404 0.030680617
0003b0 15 ab 3c 3e 18 4f 1a bd 48 14 a6 3e 90 26 d1 3c
       0.18424638 -0.037673086 0.32437348 0.025531083
0003c0 25 07 a1 bd fa c4 cc 3d 20 e9 d4 bd 76 1b 84 bd
       -0.07862691 0.09998508 -0.103960276 -0.0645055
0003d0 e9 c5 91 ba 0b 20 c5 bb f9 7d 97 bd 8d 60 98 be
       -0.0011121604 -0.0060157827 -0.07397074 -0.29761162
0003e0 84 d2 e1 bd e5 d3 bb 3c 8e a4 2a be 17 bf 6e 3c
       -0.11026481 0.022928188 -0.16664335 0.014571927
0003f0 9c db d0 bb 5b 65 9e bd 5a 24 0c 3e 22 92 d0 bd
       -0.0063738357 -0.07734176 0.13685742 -0.101841226

encoder.2.bias f4 [64]
000000 02 1f 89 3d 9c 11 4d 3f 39 d7 cc 3e 59 e8 8e 3e
       0.066953674 0.80104995 0.40007952 0.27911642
000010 1f 33 5b 3f cf b5 e8 3a 44 3f 00 be 8a 68 30 be
       0.8562488 0.0017754378 -0.12524134 -0.17227378
000020 1a b9 df bd 15 17 86 bd 53 7f 3a 3f 7d 4c d4 3e
       -0.10923977 -0.06547371 0.7285053 0.41464606
000030 65 9b f9 bd d8 c2 35 bd f7 68 70 bc a8 55 5a be
       -0.12187842 -0.04437527 -0.014673463 -0.21321738
000040 10 ae 87 be e5 f8 dd 3d 5d 08 0d 3e de 20 4f 3d
       -0.26499987 0.108384885 0.13772722 0.050568454
000050 a6 48 c7 bc 45 67 8e 3e 03 b5 86 3e b1 11 fd be
       -0.024326634 0.27813163 0.26309976 -0.4942756
000060 bb c3 8f 3e 96 9d 3f 3e 4b 85 73 3f d6 b1 68 bd
       0.28079018 0.18712458 0.95125264 -0.056810223
000070 70 4a 4b 3d a7 4b 54 3f 22 5e fd 3e 7b 78 ff 3e
       0.049631536 0.82927936 0.4948588 0.49896607
000080 6b dd 64 3c 74 d6 4a 3d d3 c6 33 3f 79 d4 8b bc
       0.013968806 0.049520925 0.70225257 -0.017069088
000090 bd 2e 15 3e 30 73 cc 3c ad 16 c2 3e 68 67 0e 3f
       0.1456861 0.02495727 0.37907925 0.55626535
0000a0 16 b8 5f 3e 7b 72 55 bc 67 55 3b bf 74 57 9a 3c
       0.21847567 -0.013027783 -0.7317719 0.018840529
0000b0 40 c0 86 3e f4 8f b6 3c 63 45 eb 3e c1 48 25 3f
       0.2631855 0.02228544 0.45951375 0.6456414
0000c0 c5 bd 3a 3e d9 a8 1c 3f 71 78 4c 3e 8e 7e 45 3d
       0.18236454 0.6119514 0.1996782 0.048216395
0000d0 e1 7b 47 3e 01 4c 95 3c 11 67 12 3d 1e 26 3f 3e
       0.1948085 0.018224718 0.035742823 0.18666884
0000e0 30 c4 06 bf f6 5c 94 3d 16 d7 1e 3d 8d c3 57 3f
       -0.5264311 0.072442934 0.03877934 0.8428276
0000f0 a8 2d d2 3d aa 8d 82 be 65 f4 9c 3e 06 34 00 3d
       0.102626145 -0.25498706 0.30655208 0.031299613

encoder.4.weight f4 [12, 64]
000000 26 34 24 3d c9 92 1d 3e 42 ad 1c 3e cc 67 8b 3b
       0.040088795 0.15388025 0.15300468 0.004254317
000010 31 04 46 3e 45 a6 ba 3c 2c 75 1b 3b e5 4f 87 be
       0.19337536 0.022784362 0.0023720963 -0.26428142
000020 23 ef 2b 3c 66 2a 61 3d bd 0e 66 3e fb 8c 84 3d
       0.010494026 0.054972075 0.2246656 0.064722024
000030 90 3a 34 3c 19 8c b9 3e 3d 7b 9b 3d f1 7c a8 bd
       0.0110002905 0.362397 0.07591865 -0.08226956
000040 0c 62 d0 bd c0 2d 80 3d 3a 3b af bf 08 68 8c 3d
       -0.10174951 0.06258726 -1.368995 0.0685578
000050 0d ee a2 3d 42 fd 78 be e2 be 51 3d 2a 70 2e bd
       0.07955561 -0.2431536 0.05120743 -0.042587437
000060 3d 93 6d bd 78 01 7f bd 09 c8 3f be 1d 9f c5 3d
       -0.058001745 -0.06225726 -0.18728651 0.09649489
000070 22 96 52 bd 5f dc 5f 3d 1c 9e 81 3a 93 dd 23 bf
       -0.05141271 0.05465352 0.0009889039 -0.6400997
000080 2b df 93 bc 9e a3 9a bd 08 c9 4c 3e a7 5f 91 3b
       -0.01805075 -0.07550739 0.19998562 0.0044364515
000090 9c 6e 47 3c 06 61 bc 3d 42 50 5f bd ca 9c c2 bc
       0.012172367 0.09198193 -0.0545199 -0.023756403
0000a0 ca 7e 8d 3e ec 6e 16 3c 51 6b e8 3d 6c 3f 6c bd
       0.27635795 0.009181719 0.11348594 -0.05767767
0000b0 67 1e cb 3d 31 24 39 be 5b 94 97 bd 42 90 a4 bd
       0.09917908 -0.18080212 -0.074013434 -0.080353275
0000c0 5c 15 3b 3e ca a4 07 3d 84 d0 8d 3d 33 3a 87 3e
       0.18269867 0.03311614 0.06924537 0.2641159
0000d0 b1 b7 9d 3d 91 4c 5f 3d a8 01 f3 3d 78 be 9b 3e
       0.07701052 0.05451638 0.1186555 0.30418754
0000e0 59 4f 04 3d 62 04 3b bd c5 6b 62 bc 4c d2 b0 3e
       0.032302234 -0.045658477 -0.01381964 0.34535444
0000f0 45 23 bf 3d 47 4c 8c 3d 3d b6 37 bf ea b2 66 be
       0.09332899 0.06850486 -0.7176245 -0.22529188
000100 4a 25 19 bd 8c 3c 49 be cf 11 f4 be 88 4a 1e be
       -0.037389077 -0.19652003 -0.47669837 -0.15458119
000110 a0 95 1c 3e 1d e1 67 bd e8 ca c9 bd 7e c2 16 3e
       0.15291452 -0.05661117 -0.098531544 0.1472263
000120 10 d8 ee 3d b9 b4 69 bd 64 b6 3f 3e 88 85 47 3d
       0.116623044 -0.057057116 0.1872192 0.04871133
000130 14 04 ab bd 9b 7d 93 3e 7f a3 d3 3d 2f eb 14 be
       -0.08350387 0.28806767 0.10333919 -0.1454284
000140 b9 42 4c bd d8 c2 54 bc 49 41 c0 3e 3a d7 cd bc
       -0.04986832 -0.0129859075 0.3754981 -0.025127042
000150 56 85 b7 3c 59 0e 7e 3d 70 b1 ee 3d 81 0b 6e be
       0.022402447 0.0620254 0.11654937 -0.23246576
000160 a6 54 51 3e 0e 1e 6e bd 7f 56 2a 3d 6a d4 e3 bd
       0.20442447 -0.05813413 0.041586395 -0.11124499
000170 14 9f 53 3e b6 6c fa 3b 8e 2a c8 3d c2 2b 2c 3e
       0.20666152 0.007642354 0.09773742 0.16813567
000180 88 1d 9e bd 25 f9 74 bd fa 27 28 3d 27 01 72 3d
       -0.077204764 -0.059807915 0.04105375 0.05908313
000190 98 13 3a 3e b1 8d 81 bd ef e8 a4 3d 75 8b 47 3e
       0.18171537 -0.063258536 0.08052241 0.19486792
0001a0 e3 6b 61 be 79 eb f3 bc c4 63 b8 be c7 96 2d 3e
       -0.22013812 -0.029775368 -0.36013615 0.16952048
0001b0 91 1f a3 be 93 b6 2c be bb c4 0f 3d 3a 45 b6 bc
       -0.3186002 -0.16866522 0.035099726 -0.022249807
0001c0 b1 d5 41 bf a6 e3 37 3d e8 c7 2b 3e 50 6c 06 be
       -0.7571669 0.044894837 0.16775477 -0.13127255
0001d0 4c 3c d5 3d 79 89 ad bd 2f c5 c1 bd 67 22 37 bd
       0.10411891 -0.084734865 -0.09461438 -0.044710543
0001e0 85 74 06 bf 43 de 1c 3d 84 88 fb 3c 57 58 a0 3d
       -0.52521545 0.038297903 0.030704744 0.078293495
0001f0 e2 c5 24 3d 20 cc 6f bd 37 a4 b8 bd 51 98 8b 3d
       0.04022778 -0.05854428 -0.090156965 0.068161614
000200 66 42 c9 bd 51 09 7b 3c 50 24 82 be 4c 06 3a bd
       -0.098271176 0.015322045 -0.2541833 -0.04541616
000210 50 b0 50 3d 2d 65 32 3d d8 d3 a3 3d 51 14 2a bf
       0.050949395 0.04355352 0.0799939 -0.6643725
000220 9c f8 f2 bd b4 3f f9 3a 8b 25 18 3e 2e 5a 26 3e
       -0.11863825 0.0019016177 0.14858072 0.16245338
000230 1e 74 50 3d 46 d9 11 c0 90 61 da bd e7 99 8d 3d
       0.050891988 -2.2788863 -0.1066314 0.0691412
000240 3e 8b 36 3e 49 0f b8 bf fa e2 aa be 42 81 14 bd
       0.17826554 -1.4379665 -0.33376294 -0.036256082
000250 14 17 b5 3d 13 25 a2 3d 7f f7 46 bd e8 08 30 3e
       0.088422924 0.079172276 -0.048575874 0.17190897
000260 be 5c 25 be 1f 1d b8 3d f8 ab ed be 7c e8 2b be
       -0.1614866 0.089899294 -0.46420264 -0.16787905
000270 5f 27 06 bb 19 8a 47 be e1 cb e0 3c 7a ba 8f be
       -0.0020470244 -0.19486274 0.027440967 -0.28071958
000280 b5 49 13 3c 0b 8c c3 bd b2 4e 63 3e f3 d5 bc 3c
       0.008989741 -0.095481955 0.22197989 0.023051238
000290 0e 61 09 bd 84 19 a9 3d 5c 7f 37 3d 45 82 73 3c
       -0.033539824 0.0825682 0.044799194 0.014862602
0002a0 a6 68 a0 bf 48 b5 d7 bb 2f c5 93 bd 3e 00 55 3e
       -1.2531936 -0.0065828897 -0.07215344 0.20800874
0002b0 cc 37 c9 3e 02 85 b3 3d fa 3d 42 3e de 2c 71 be
       0.39300382 0.087656036 0.18968955 -0.23552272
0002c0 f0 38 d7 bd 06 f2 ce 3d a1 27 f0 bc 62 dd 92 bc
       -0.10508907 0.10104756 -0.029315772 -0.01792783
0002d0 37 bf 3b bf 90 c4 93 bd df e5 e2 bb cb d0 39 be
       -0.73338646 -0.07215226 -0.0069243754 -0.18146054
0002e0 14 04 93 3e 29 d4 f9 bd 22 6a c0 bd 43 74 b3 be
       0.2871405 -0.121986695 -0.09395243 -0.35049638
0002f0 f2 59 07 3f 2c 33 3a bf 53 09 d2 3d 54 43 30 3e
       0.5287162 -0.7273433 0.10255685 0.17213184
000300 f6 03 00 be 58 c9 4e 3e 06 76 8b 3e d4 9d 6e 3e
       -0.12501511 0.20193994 0.27238482 0.23302394
000310 0b c0 75 3e d2 a9 de 3d d9 2f e1 3d 59 14 f5 3e
       0.2399904 0.108722344 0.10995454 0.47867087
000320 d3 3d cb bb 21 b1 16 bd e5 75 31 3d b2 7e 97 3e
       -0.0062024384 -0.036790017 0.043325324 0.29588848
000330 ee ed 9a bd d9 57 13 bf 46 94 d4 3c 88 39 50 be
       -0.07564913 -0.5755592 0.025949609 -0.20334446
000340 a9 37 89 3e e1 67 43 3e d2 25 9e 3e 95 3d 1a 3c
       0.26800278 0.19082595 0.3088823 0.009414096
000350 e3 b5 a7 3d f3 de 6e bd 95 41 43 3d 9d 2b 2d bf
       0.08188989 -0.05831809 0.047669966 -0.67644674
000360 24 0b 05 3c 8c f5 16 bd 24 79 9a bd 5a ff 39 3d
       0.008120332 -0.036855265 -0.07542637 0.045409538
000370 49 a9 46 3d 03 99 4c 3e e9 7b 0a bd c7 ff 8a be
       0.048501287 0.19980244 -0.033809576 -0.27148268
000380 2a 53 a2 3d 69 9f 02 be 0e 62 90 3d 08 b4 a1 bd
       0.079260185 -0.12756123 0.070499524 -0.07895666
000390 97 61 6d 3e 30 cd d4 bc 12 de 2b 3d b4 11 cc bb
       0.23181759 -0.025976747 0.04195983 -0.0062276963
0003a0 9c e2 79 3e e1 ae 87 3d 52 f4 0a c0 00 04 99 3d
       0.24402851 0.066251524 -2.1711621 0.07471466
0003b0 91 d9 de 3d 50 87 89 3e c8 7a 8f 3c 48 c3 07 be
       0.10881341 0.26861048 0.017514601 -0.13258088
0003c0 db 51 f4 3e 24 f9 99 3c a1 f1 27 3e cf 40 c6 bc
       0.477187 0.018795557 0.16400768 -0.024200825
0003d0 6e 80 a2 3e a2 0e e3 3c 12 1b 0d be 1b 8e cc 3d
       0.3173861 0.027716938 -0.13779858 0.09988042
0003e0 e8 f3 81 bf 56 bf 20 bd da 76 c7 3d 12 7d d2 bc
       -1.0152559 -0.039244972 0.09739466 -0.025694404
0003f0 b4 99 54 3e 30 9a 1b bd 19 1f 4d 3d cf 5c 5b bf
       0.20761758 -0.03798884 0.050078485 -0.8568849

encoder.4.bias f4 [12]
000000 86 82 ab 3e 71 69 ed 3e fe 72 0c 3f be 63 8d 3d
       0.3349802 0.46369508 0.54862964 0.0690379
000010 7c 39 1a 3e 8c d7 a6 3e 09 99 3a 3e 08 69 bf 3e
       0.15060991 0.32586324 0.18222441 0.3738482
000020 23 1a 11 3e 70 b2 30 3f 7b 84 4f 3e 81 6a 96 bd
       0.14170127 0.69022274 0.20265381 -0.07344533

encoder.6.weight f4 [3, 12]
000000 b4 18 8f be 5d 8a fe bb 32 ed 82 3f d5 f3 52 3b
       -0.27948534 -0.007767959 1.0228636 0.0032188792
000010 b0 6d cd bd 90 30 61 3e 82 b8 f4 3d c6 a5 b8 3e
       -0.10030687 0.21991181 0.119492546 0.36063975
000020 3c 36 8d be 24 ce 8d 3f a6 b7 8e be c4 1f e0 bd
       -0.2758044 1.1078534 -0.27874488 -0.10943559
000030 b4 61 df be d8 22 e0 3e 64 33 65 be d5 0b 35 bd
       -0.4362923 0.43776584 -0.22382885 -0.044200737
000040 cb 28 b8 3e ec 77 e4 3e 1c ca 25 be 3a eb 4e 3e
       0.35968623 0.44622743 -0.1619038 0.2020692
000050 a8 52 95 3e 53 ad 01 bf ce 8b 42 3e 3e ae 66 be
       0.29164624 -0.50655097 0.18998644 -0.22527406
000060 92 c7 66 3e dd 8d 85 bd 82 c1 7e 3f d3 0f 19 bf
       0.22537068 -0.06521199 0.9951402 -0.5978977
000070 25 1c 5b 3e b0 00 38 3d 60 4d e1 3e 92 2a a4 3e
       0.21397455 0.04492253 0.44004345 0.3206373
000080 b1 b2 57 3e ce 94 9f 3d 68 a0 a3 3e 12 eb a6 3b
       0.21064259 0.07792054 0.31958318 0.0050939405

encoder.6.bias f4 [3]
000000 10 dc 65 bc b3 72 80 be e9 e6 a9 3e
       -0.014029518 -0.2508751 0.33183983

decoder.0.weight f4 [12, 3]
000000 ba 77 af 3e 64 18 15 3f ae 0f ae bd be 03 47 3f
       0.34271032 0.5824034 -0.084990844 0.77740085
000010 67 c8 86 3e 8f ab dc be 4c c4 c5 3e 5e ab c8 be
       0.2632477 -0.4309964 0.38626325 -0.39193243
000020 b6 33 35 be a6 5d 0f 3f dc f4 4d bf d1 2c 10 3c
       -0.17695507 0.5600227 -0.8045175 0.008799748
000030 8c 10 35 3e 0a 29 39 be 80 e9 17 bf 49 66 15 3f
       0.17682093 -0.18082061 -0.5934067 0.583592
000040 94 16 aa bd b4 13 1a 3f 39 5c f9 3e 95 31 ff bd
       -0.08305088 0.60186315 0.48703173 -0.12460629
000050 91 79 c4 be 14 60 35 bf bd 2a b0 3e 8c f8 e2 3e
       -0.38373998 -0.7084973 0.34407607 0.4433025
000060 df d6 f1 3e 0d ea 78 3e 20 9f 52 3e 21 ed f2 be
       0.47234246 0.24308033 0.20568514 -0.4744654
000070 27 f6 45 bf da 69 74 3c e9 ad 85 be 26 a2 8a be
       -0.77328724 0.014917815 -0.26109245 -0.27076834
000080 c3 8e 8a 3e b4 04 c6 be 24 c9 bd 3e e1 bb 2b bf
       0.27062044 -0.38675463 0.3706752 -0.67083555

decoder.0.bias f4 [12]
000000 ed 40 f6 3e b0 dd a9 3e a6 0a 4a bf fb 0f 80 3f
       0.4809641 0.33176947 -0.789225 1.0004877
000010 5e 62 db 3e c7 ec 61 3f 05 4d 50 3f f7 09 82 3d
       0.42848486 0.8825192 0.8136752 0.06349557
000020 e5 70 05 bf dd b1 d5 3e 11 bc d5 be e2 95 39 3f
       -0.5212539 0.4173726 -0.41745046 0.7249433

decoder.2.weight f4 [64, 12]
000000 59 2b 82 bd b0 ef 9d 3a a1 eb c3 3e 9e 65 5b be
       -0.06355924 0.0012049582 0.38265708 -0.21425483
000010 88 47 ba be b0 af 23 3e b2 0f 42 3e 3f 29 ba 3d
       -0.363827 0.15984988 0.189513 0.09089898
000020 05 94 8c bc 1c df 8b 3e 59 6c 0a bf 30 2f 38 bd
       -0.017160425 0.27318656 -0.54071575 -0.044966877
000030 d0 c5 ad 3d e2 d9 7d be 93 97 ff be 52 b8 1c be
       0.08484995 -0.24790147 -0.4992033 -0.15304688
000040 fb 79 5f be b5 0e 35 bc 7a 9f 05 3f 9e a6 64 3c
       -0.21823876 -0.01105087 0.52196467 0.01395574
000050 b1 8d 30 3e d6 0e b5 3d 06 b1 9e be 70 e6 34 bc
       0.17241551 0.0884072 -0.30994433 -0.011041269
000060 bb f1 98 3e ee cd c2 be b6 4c 94 3d a1 25 96 bd
       0.29871926 -0.38047737 0.07241194 -0.07331396
000070 f2 1e e0 be 6e 81 3f bd 55 02 ec 3e e3 5c 03 be
       -0.4377361 -0.046754293 0.4609553 -0.12828402
000080 98 de e9 bc 9e e4 54 be 6a e0 fd 3d 6d 99 80 3e
       -0.028548524 -0.20790336 0.12396319 0.25117055
000090 23 9d 3e 3c 26 36 35 3f 11 6b 9b 3e 69 0d a6 be
       0.011634144 0.7078575 0.30355123 -0.32432106
0000a0 4b 58 92 3e 81 bc 25 3d 10 2d cb be 2c 38 29 3e
       0.28582987 0.040462974 -0.39682817 0.16525334
0000b0 5f 9a a8 be d1 51 8c 3e 22 d5 14 be cc e8 fc be
       -0.32930276 0.2740617 -0.14534429 -0.4939636
0000c0 fa d3 16 3e 5f 97 b4 be b5 1d 44 3e e9 2d 01 3f
       0.147293 -0.35271737 0.19151957 0.5046068
0000d0 d7 f4 8a 3d 49 d7 ff 3d 52 86 1b be f0 07 e7 bd
       0.06784981 0.12492234 -0.15187958 -0.11280811
0000e0 5d c8 0d 3e b8 ba 64 bd 2f 0d 1e bf eb fd 92 bb
       0.13845964 -0.05584213 -0.61738867 -0.004485836
0000f0 57 8c 10 3c 30 33 e7 be 87 5b 11 be f1 8c 1e be
       0.008822522 -0.4515624 -0.14195071 -0.15483452
000100 78 e2 8c 3e f6 fb 7d bf ac 1d 42 3e 4e fb df 3e
       0.27516532 -0.99212587 0.18956631 0.43746418
000110 ea 49 ed be 9f 5e 28 3b b7 a0 f2 bd a4 ae cd 3e
       -0.46345454 0.0025691164 -0.1184706 0.40172303
000120 1a 68 7f 3e e3 7a 7b 3e 57 6a 12 be 01 54 ac bd
       0.24942055 0.24558596 -0.14298378 -0.0841446
000130 95 7e d1 bd 64 a7 b4 be ad 65 e9 bd f0 2d b9 3e
       -0.10229222 -0.3528396 -0.11396346 0.3616786
000140 ac db 83 be d3 1f 58 bf b7 a8 53 be 04 53 22 bf
       -0.25753534 -0.8442356 -0.20669828 -0.6340792
000150 91 8f 57 3e 15 a2 fa bd 28 4f 2f be 13 c7 c7 bd
       0.2105086 -0.12237946 -0.1712004 -0.09754767
000160 72 fd 7e bb 20 1d 58 bd 0f d7 f3 bd b0 2a 28 3e
       -0.003890839 -0.05276215 -0.119062535 0.16422534
000170 a5 3c 5b be 9c 20 0b 3c 2d 90 b0 be 66 74 ee 3e
       -0.21409853 0.008491661 -0.34484997 0.4657318
000180 05 ee 9a be 91 8c 14 3d eb 9e f4 3e 7c 7b 15 3f
       -0.3025972 0.036266867 0.47777495 0.5839155
000190 c6 8c eb 3e ff d3 a1 3c ff 63 64 3e e2 51 b6 be
       0.4600584 0.019754408 0.2230377 -0.35609347
0001a0 bd fc 22 bf 21 28 24 3e c2 91 2a bd 76 8d 7d bf
       -0.636669 0.16030933 -0.04164291 -0.9904398
0001b0 a8 f6 ab 3e 43 0f fc bf 57 f4 b5 bc 74 0a a4 bd
       0.3358662 -1.9692158 -0.022211237 -0.08009806
0001c0 24 e3 37 bc aa b8 88 3b 44 f5 97 be 2a 1a 3b 3e
       -0.011223588 0.0041724043 -0.2967931 0.182717
0001d0 71 6e 86 be 62 f2 d1 be 6a 33 b1 be 56 30 cf be
       -0.26256135 -0.41005236 -0.34609538 -0.40466565
0001e0 dd ae e7 bd 54 60 8b be f1 a4 a5 3f 17 8b 18 3f
       -0.113126494 -0.2722193 1.2940961 0.59587234
0001f0 00 7e 88 bf f9 93 2c be af 59 2e bf 41 e3 1f 3e
       -1.0663452 -0.16853322 -0.68105596 0.15614034
000200 b5 0c bf 3d 6c 75 ac be f8 f2 4f bd 40 43 36 be
       0.093285955 -0.33683336 -0.050768822 -0.17799091
000210 38 47 83 bd ae 43 85 3d 12 6c 30 be c7 24 6d be
       -0.06410068 0.065070495 -0.17228726 -0.2315856
000220 0a 29 de bd 5f c0 e4 bd 0c 49 a3 3e 45 aa 8f 3e
       -0.10847671 -0.111695044 0.31891668 0.28059593
000230 64 85 37 be 1a f4 e6 bd f7 36 b1 3d 30 9c 3f bd
       -0.17921978 -0.112770274 0.08653062 -0.04677981
000240 34 2b 4c 3e bb af a3 bd a5 e7 5c 3f 03 86 33 3e
       0.19938356 -0.07992502 0.8629096 0.1753159
000250 ce 65 35 3e 53 20 8f 3d b7 7e 00 bf 18 46 63 bd
       0.17714617 0.06988587 -0.5019335 -0.05548677
000260 1d 50 3f 3d 4e 17 86 bd e2 49 ae 3e e8 89 b9 3e
       0.04670726 -0.06547414 0.34040743 0.36238027
000270 b5 69 00 bf 02 ed 0f 3c 75 ab 99 3d 48 a5 46 3f
       -0.50161296 0.008784534 0.07503406 0.7759595
000280 59 96 0a 3f 79 f2 05 3e e0 85 89 3e 3b aa ca bd
       0.5413566 0.13080777 0.2685995 -0.0989575
000290 01 70 33 bf 69 43 07 be b3 2d ba bd 12 e2 76 be
       -0.7009278 -0.13209309 -0.09090748 -0.24109676
0002a0 12 e0 58 be 7f 91 80 bd e6 f0 d6 be 9d d5 27 be
       -0.21179226 -0.06277751 -0.41980666 -0.16390081
0002b0 2b 43 f1 3e 9c 69 3a be f2 55 0c 3f d6 c8 60 bf
       0.47121558 -0.1820435 0.5481864 -0.8780645
0002c0 6b ff 19 3c e6 a9 87 3d ba 34 be bf da d0 21 3e
       0.009399275 0.066242024 -1.4859841 0.15802327
0002d0 68 d6 a2 bd 50 4c cc 3d ec 5c 88 3e 6a a1 fb bd
       -0.07951051 0.09975493 0.26633394 -0.12286647
0002e0 78 19 23 bd 0f ba 97 be 48 ec 3b be 33 8e 34 be
       -0.03981921 -0.2963414 -0.18351853 -0.1763237
0002f0 a8 05 81 be f2 60 ac bd a2 90 84 3e c5 7d 05 be
       -0.25199628 -0.08416928 0.25891596 -0.13036259
000300 f1 d3 82 3d d8 ae 0a 3e 90 d6 1d 3f 7f 4d 6a 3e
       0.06388081 0.1354326 0.6165552 0.22881125
000310 e7 47 64 be 56 3f a9 be 2e 6f bd 3b b3 e9 58 3e
       -0.22293054 -0.33056134 0.005781076 0.21182899
000320 78 9c bd 3c 36 c4 f2 ba 2e 93 7b be b0 db 0a 3d
       0.0231459 -0.001852161 -0.24567863 0.033900917
000330 17 f6 05 3e 45 1b af be 3c ad 2a 3e 11 4c 8b 3e
       0.13082157 -0.34200493 0.16667646 0.27206472
000340 ea 14 33 3e 81 f1 f3 3d cb 5b 1a be 8e 15 a9 3d
       0.17488447 0.119112976 -0.15074079 0.08256064
000350 91 3c 5e 3e 2b 95 f3 3d b6 23 92 be 64 21 3a 3e
       0.21702792 0.11893686 -0.2854287 0.181768
000360 8c 8e ad 3e 7e b1 84 bd 7f 63 68 3e 0f 6c 3d be
       0.33897817 -0.064791664 0.22694205 -0.18498252
000370 db cf f7 bd 88 2f 00 be b6 6d 86 3e a4 8a 8a bd
       -0.12100192 -0.12518132 0.26255578 -0.06764725
000380 0b c4 7e 3c b9 aa b0 be e5 f2 70 3e d0 92 6e 3e
       0.01554967 -0.3450525 0.23530157 0.23298192
000390 6a 4d 45 3e 34 4a 61 bf 41 80 76 be 42 b2 78 bd
       0.19267812 -0.8800385 -0.24072362 -0.060716875
0003a0 3f 52 c4 bd 87 a1 6e 3c 64 aa b0 bf ad 44 d4 3d
       -0.09586 0.014564878 -1.3801999 0.10364661
0003b0 da 0c 84 be 27 8b 11 3d c3 6d a5 be 1f 9a b9 bd
       -0.25791055 0.035533097 -0.32310304 -0.090625994
0003c0 de 7c fb 3d 73 ad 92 bd fc a3 bd 3e 9d 5f cb 3e
       0.12279676 -0.07161989 0.37039173 0.39721385
0003d0 df ca 31 be 66 14 97 3b 81 ec 64 be 3d 41 8c bd
       -0.17362545 0.004610586 -0.22355844 -0.06848381
0003e0 63 19 bc bd 1e 30 0e 3e b2 53 1e 3e da 64 ea 3d
       -0.0918453 0.13885543 0.15461615 0.11445017
0003f0 f5 59 ee 3e 1c 01 2c 3d 47 94 0b be 60 66 c0 be
       0.46553007 0.041993245 -0.13630782 -0.37578106

decoder.2.bias f4 [64]
000000 8d 40 cb bc 62 35 ca 3e d7 ad a9 3e cd 12 1c 3f
       -0.024811054 0.39493853 0.33140442 0.6096619
000010 a5 94 7d 3f da fe 2e 3e 5b 17 cf bd 4c 98 71 3e
       0.9905494 0.17089406 -0.101118766 0.23593253
000020 11 c5 d1 be 76 3e 9e 3e c2 0a 39 3f e5 27 4d 3f
       -0.40970662 0.3090703 0.7228204 0.80139
000030 f6 e8 a5 bf 08 d4 0e 3d b3 97 07 3f 18 b5 34 3c
       -1.2961719 0.034870178 0.5296585 0.011029504
000040 0f c1 f2 3e 2a 67 81 bf 49 10 17 3f ea 11 81 3f
       0.47412917 -1.0109608 0.59009224 1.0083592
000050 ef 90 4a 3f e6 18 6f 3f 5d 4b 68 bf 85 47 82 3e
       0.791274 0.93397367 -0.90739995 0.2544519
000060 e5 90 db 3e 60 a7 eb 3e b2 90 d3 3e 2a fc d4 be
       0.42883983 0.46026134 0.4132133 -0.41598636
000070 8b 7d 7f 3f 4c 3b 2e 3f d0 07 53 3f 2f a3 be be
       0.9980094 0.6805923 0.82433796 -0.37233874
000080 a6 5a 41 bf 10 62 59 bf 6e e5 01 3e 3b 3b 13 bf
       -0.75528944 -0.84915257 0.12685177 -0.57512254
000090 9e e0 68 3d 5f 8d 91 be 86 82 8f 3e 3d dd 9b be
       0.056854837 -0.2842817 0.2802927 -0.3044223
0000a0 07 e1 26 3f 8a a8 f0 3e a6 07 1f 3f d8 57 22 3f
       0.65187114 0.47003585 0.62121046 0.6341529
0000b0 4b a1 da 3e 48 c6 25 3f e0 b0 21 3e 28 41 19 3f
       0.42701182 0.6475568 0.15790129 0.59865046
0000c0 74 c0 92 3f a9 5e 07 3f 7f 3e 30 3f 86 38 60 3f
       1.1464982 0.52878815 0.6884536 0.8758625
0000d0 17 a2 52 3d 38 e6 c1 3e 44 f8 04 bf b1 eb 4d bf
       0.051424112 0.37870955 -0.51941323 -0.8043776
0000e0 48 0e cd 3e 8c 61 93 bf 30 3a 84 3d ae 08 8d 3e
       0.40049958 -1.1514144 0.06456411 0.27545685
0000f0 51 d7 56 3f a3 08 00 3f 8d fd 04 be f0 7b 9d bf
       0.83922297 0.5001318 -0.12987347 -1.2303448

decoder.4.weight f4 [128, 64]
000000 a4 ec f0 bd 3e 7c 4c be bd a8 f8 3c 7f 09 17 3e
       -0.117638856 -0.1996927 0.030353898 0.14749716
000010 bf 74 48 be 9e e1 b8 bf 0b 11 56 3d 91 2e bd bc
       -0.19575785 -1.4443853 0.052262347 -0.023093494
000020 66 77 91 3e 79 d6 9a 3d c3 09 61 3e a0 52 53 3b
       0.28411406 0.07560439 0.2197638 0.0032245293
000030 6f 5d 93 3d 05 d9 f6 be 60 16 da bd 75 fd 10 bd
       0.071955554 -0.48212448 -0.10648799 -0.035397965
000040 f0 91 c3 bc e8 23 bb be 84 c2 3e bd 38 95 3f 3e
       -0.0238733 -0.36550832 -0.046572223 0.18709266
000050 f8 22 9d 3e e6 08 49 3e 60 5c 84 bd ca 31 7d 3b
       0.30690742 0.196323 -0.06462932 0.0038634413
000060 a7 ea f3 3d e4 0d 30 bb a8 bf ac 3c 40 ff 81 3e
       0.11909991 -0.0026863748 0.021087483 0.25390053
000070 53 37 41 bd 04 3c df 3d dc 25 f0 bd ac 15 a2 3c
       -0.047171902 0.10900119 -0.11725971 0.019785725
000080 cd 30 f8 bd d0 6d b9 bd 1f 1d 59 be ea c6 d0 3d
       -0.12118683 -0.09054148 -0.21202515 0.1019419
000090 2b 21 c6 bd 10 92 e2 bd f5 e0 80 bb 64 9f 8e 3d
       -0.09674295 -0.110630155 -0.003933067 0.06963995
0000a0 77 b3 44 be 68 a8 7a be 63 53 65 3d 4d e7 15 3e
       -0.19209085 -0.24478304 0.055987727 0.14639015
0000b0 9c c8 af 3d dd 69 b7 3c f5 61 0a 3e 92 52 b2 3c
       0.08583185 0.022389347 0.1351393 0.021767888
0000c0 76 d7 ad 3d 22 60 0e bd 99 06 a0 3e b2 01 aa 3d
       0.084883615 -0.03475965 0.31255034 0.083011046
0000d0 35 af ca bd 8e b2 83 3d cb dd d5 3b ad 5a 29 be
       -0.09896699 0.06430541 0.006526684 -0.16538496
0000e0 0a 8c cc 3d 62 5b dc bd bd 82 67 3e 53 cd a0 3e
       0.09987648 -0.107596174 0.22608466 0.3140665
0000f0 59 22 6a 3f 21 5d 86 be d3 54 b4 bd 64 f1 06 be
       0.9145866 -0.26242927 -0.088052414 -0.1317802
000100 6a 03 62 3d 85 b8 99 3e 81 60 ef 3d 98 14 1d 3e
       0.055179037 0.3002359 0.116883285 0.15339887
000110 a4 66 cf bd 59 92 b6 3e 1b 3b 92 3d 53 1a 03 bd
       -0.10126999 0.3565853 0.0714018 -0.032007527
000120 e3 06 7d 3f 85 0c 11 3e fc 7a da bd 33 d5 b7 3d
       0.98838633 0.14164932 -0.10667989 0.089762114
000130 b8 f3 01 3e 95 cf a6 3c fb 36 4e bc 07 6b e0 3d
       0.12690628 0.020362655 -0.012586351 0.10957914
000140 9a 10 c8 bd 49 93 95 be 7f f0 89 bd bf 40 3c 3d
       -0.097687915 -0.29213932 -0.06735324 0.045960184
000150 85 f7 8b 3e 45 c3 e0 3e 3d a5 25 3e 58 28 2e 3d
       0.2733728 0.4389898 0.16176315 0.042518944
000160 a9 43 cb 3d 5f d3 b2 3d 6c 8c f4 3c a8 5d a1 3d
       0.099250145 0.08731722 0.029852115 0.07879192
000170 89 25 c2 3e 31 0b 3d 3c 49 d8 a4 3d 0b e2 87 3d
       0.37919262 0.011538313 0.080490656 0.06634911
000180 04 2c be bd eb 9b a2 bd e9 93 b5 3d 0b 7e 30 3d
       -0.09285739 -0.07939895 0.08866102 0.043088954
000190 a3 64 cf 3c 15 42 1e 3e 20 44 43 3e dd 84 eb bf
       0.025316542 0.15454896 0.19068956 -1.8399922
0001a0 2f b2 9c 3d 54 8e 83 3e d8 4a b7 3d b6 47 8e 3e
       0.07651173 0.25694525 0.08949822 0.27789086
0001b0 2d 65 1c 3e 19 f5 96 3d af 16 0e be 0d 9f e9 bc
       0.1527297 0.073709674 -0.1387584 -0.028518224
0001c0 39 a1 1a be d9 df a9 3d 29 44 f9 be ca e8 cc 3d
       -0.15100564 0.08294649 -0.48684815 0.100053385
0001d0 fb 94 46 3b ac 25 76 3e 89 73 8d bd bf e8 a8 3e
       0.0030301202 0.24037808 -0.06906802 0.3299007
0001e0 46 27 6d bd 6c a1 f4 bd 7c 72 a4 be 1c 0b 52 3e
       -0.057898782 -0.11944851 -0.32118595 0.2051205
0001f0 61 ed cf 3e fd 26 43 bd b6 2c f4 3d 03 4d 83 3e
       0.40610793 -0.047644604 0.119225904 0.25644693
000200 00 fb 1a 3d 25 8e 66 be 53 5e 48 bf 19 a9 b2 3e
       0.03783703 -0.22515161 -0.7826893 0.34894636
000210 58 20 92 bc 60 60 9b be 7f 73 8b bd 10 d8 90 be
       -0.017837688 -0.30346966 -0.068091385 -0.28289843
000220 fc 96 97 3d da 1e 2d 3c 76 c9 f9 bc bf 8d bf 3d
       0.07401845 0.010566438 -0.030491572 0.09353208
000230 03 db 09 be d5 ef 49 be 5d d1 ad bc 7c 1b 6d 3d
       -0.13462453 -0.19720395 -0.021217996 0.05788754
000240 9b 3a fe bd 83 6b d2 be a2 2e 1c bf dd c2 ef bd
       -0.12413522 -0.4109765 -0.61008656 -0.11707089
000250 8b 2d 2c 3e a3 02 9b be 49 1f 06 be 8e cb 25 be
       0.16814248 -0.3027545 -0.13097872 -0.16190931
000260 ea bb 80 bd ad f8 c5 bd b8 12 9f 3d 4b ca ce 3d
       -0.06285842 -0.09666572 0.07767242 0.10097178
000270 e6 85 d3 3e d9 65 11 3e 4d ae 5d 3d a8 42 61 bc
       0.41313094 0.14199008 0.054121304 -0.013748802
000280 8b 7c c7 be 7a 9a 93 bc 2c 3d 13 3e 49 48 8a bd
       -0.38962206 -0.018017996 0.14378804 -0.067520685
000290 22 0c 8e bd 93 bb 46 bd 48 9a b7 3e 78 cb 7b bd
       -0.06935908 -0.04851873 0.35859895 -0.06147334
0002a0 85 07 d7 3e 4b 00 bd 3e 04 25 a7 be 93 23 86 3e
       0.41997924 0.36914286 -0.32645428 0.26199016
0002b0 62 12 29 3c 7c a5 c0 3c ea 10 88 3e 58 44 d4 3e
       0.010319324 0.02351641 0.26575404 0.41458392
0002c0 9f 84 ec 3c 9d 60 b0 3e 67 7f cf 3e 6f ad 51 3e
       0.028871832 0.3444871 0.40526888 0.20476316
0002d0 d6 e8 34 3d 01 40 ec 3d 53 a5 7a be 1a 19 0f be
       0.044167362 0.11535645 -0.24477129 -0.13974419
0002e0 0b 6c 04 3e d5 0e a8 3d 86 ac ad 3e 85 6f c3 be
       0.1293184 0.08205954 0.33920687 -0.3817102
0002f0 db 85 0c 3f 6c 9c 00 3e d9 2a a7 be 97 e8 07 bf
       0.5489175 0.1255967 -0.32649878 -0.5308928
000300 1c a0 00 3e 80 02 c8 3c 27 ea 4d be 4b 76 b3 bd
       0.12561077 0.024415255 -0.20108853 -0.08762797
000310 6f d7 69 3e e7 ec dc 3d 2d 15 4f bd fb 21 03 3d
       0.22836088 0.10787373 -0.050557304 0.03201483
000320 f9 c7 7b bf f1 cc b6 3e 87 64 83 3e 94 0a 6f 3e
       -0.9835201 0.35703233 0.25662634 0.23343879
000330 e5 95 24 bf d6 70 71 3e 3d d6 6f 3c 3c e9 bc bd
       -0.6429122 0.235782 0.014638481 -0.092241734
000340 4b 83 7d bd 03 ed 30 be 9c c2 66 bc a6 f2 85 3e
       -0.06189279 -0.17277913 -0.014084484 0.2616169
000350 d1 18 9f 3d 8f 73 54 bd 8b 70 54 be 59 79 98 3d
       0.07768405 -0.051868018 -0.20746057 0.0744502
000360 13 cf 34 3e 22 d4 2e 3b e1 73 bc 3d 8e 0e 4f 3d
       0.17657118 0.0026676734 0.0920179 0.05055099
000370 29 51 1e 3e 7d e0 83 3e d6 bf 14 3f a2 c6 25 3e
       0.15460648 0.25757208 0.5810522 0.16189054
000380 54 b2 7d be cc ad 93 be 1d 63 99 bd eb 23 50 bd
       -0.24775058 -0.28843534 -0.074896075 -0.050815504
000390 5b d2 41 3d f5 d7 ab be 9a ff 21 3f 83 0b 0f bf
       0.04731975 -0.335632 0.6328064 -0.5587694
0003a0 93 87 18 3e 15 79 76 3e 3d 71 a6 3e 76 cb e4 3d
       0.14895467 0.24069627 0.3250827 0.111716196
0003b0 f0 96 f0 ba 32 b2 b1 3d 4e 40 d6 bf 6d 1d 90 3d
       -0.001835553 0.08676566 -1.6738374 0.070368625
0003c0 b3 0e 15 be f8 7b 63 be b4 51 7c bf 31 e4 24 3d
       -0.14556389 -0.22215259 -0.9856217 0.040256683
0003d0 45 a2 ed 3c c8 95 2a bd 0e d3 41 be fd 93 67 3e
       0.02900804 -0.04164675 -0.18928167 0.22615047
0003e0 e9 e1 38 be 6b 09 84 3e 7b 67 80 bf df 0f 01 bf
       -0.18054928 0.25788435 -1.003158 -0.5041484
0003f0 b8 45 63 3d d9 30 97 3e bc 4e c1 bd 27 45 0b 3f
       0.05548641 0.29529455 -0.094388455 0.54402393

decoder.4.bias f4 [128]
000000 3a c9 52 3e c0 af 8c 3e 7a 31 01 3f fd e3 9f 3d
       0.20584574 0.27477837 0.5046612 0.07807157
000010 ce d8 65 3e f9 af ec bd 6e 6d c1 3e 25 a8 ae 3e
       0.22445986 -0.115570016 0.377788 0.3411266
000020 55 da 98 bd 44 76 8e 3d 16 f3 2f be e9 39 b5 3e
       -0.074635185 0.06956151 -0.17182574 0.35395744
000030 c0 4d 8b be 4b 94 cb 3e 02 11 c6 3e 5a fe c2 be
       -0.27207756 0.39761576 0.3868485 -0.3808468
000040 1c 73 a4 bd 5c f6 f8 be 8b 57 8e be ee c4 24 bd
       -0.08029768 -0.48625457 -0.27801165 -0.04022687
000050 73 2a d1 3e 15 13 17 3e 2e 8a 3d 3c 38 a2 17 bf
       0.408527 0.14753373 0.011568589 -0.592319
000060 f8 27 06 be 14 0d 66 3e e9 c0 9f 3e 90 03 91 bd
       -0.13101184 0.22465926 0.31201866 -0.070807576
000070 5b ce b5 bd d4 7c 6a 3e f3 d4 b7 3d 54 96 cf 3e
       -0.0887725 0.2289918 0.08976164 0.4054438
000080 c1 1a 22 bf 8c cb 5c 3e ad f8 85 3d fd 28 a9 3c
       -0.63322073 0.21562022 0.06541572 0.020649428
000090 49 72 d2 3d b2 09 79 3d f8 70 64 bf 85 9f c2 3e
       0.102757044 0.06080026 -0.89234877 0.3801233
0000a0 5b 6c be bd 0a f0 74 3e eb 63 9b 3e b8 e2 bc 3d
       -0.09298011 0.23919693 0.3034967 0.09222931
0000b0 23 11 a4 3e 67 3a 6e 3e 93 92 20 be 8d 71 5d bd
       0.32044324 0.23264466 -0.15680914 -0.05406337
0000c0 95 35 b9 3e 7b 6b a1 3e 0f 5a 6d bd 9d 2b f0 bd
       0.36173692 0.31527314 -0.057947215 -0.117270686
0000d0 2a fc 83 3e b9 06 6f 3e c3 9b cc bd 27 61 c2 3e
       0.25778323 0.23342408 -0.09990647 0.37964746
0000e0 d6 9c 62 3e 37 e9 03 3c 70 80 37 bb 36 5b ca 3c
       0.2213014 0.008051208 -0.0028000139 0.024701696
0000f0 17 c0 9c 3e 39 7c 8d 3e 78 7d 54 be a4 70 6e 3e
       0.30615303 0.27633837 -0.20750988 0.23285156
000100 13 b7 da 3d 0f 07 ba bf 4d 2f 1f bd 19 c0 2c 3e
       0.1067945 -1.4533404 -0.03886347 0.16870154
000110 18 99 8d 3e c3 08 75 3e 0e 59 cd be 0a 88 9f bc
       0.27655864 0.23929124 -0.40107006 -0.019474048
000120 a6 a0 2d 3e f7 10 4c 3e ea c9 d1 bd e0 00 58 3d
       0.16955814 0.19928347 -0.1024359 0.05273521
000130 c5 b1 84 3e 29 94 be bc c4 2f b9 3e 52 d4 fc bc
       0.25916877 -0.023264008 0.36169255 -0.030862961
000140 a8 d0 92 3e 5b af ae 3e 31 e1 6c be d7 b8 a0 bb
       0.28674817 0.3411816 -0.23132779 -0.004904847
000150 8f ab b8 3e cb 85 03 3f 74 b9 92 bd 48 81 32 be
       0.3606839 0.51376027 -0.071642786 -0.1743213
000160 1c 15 f9 3e 64 ac f1 bd ee fd 0c 3e 6b 9d 0d 3e
       0.48648918 -0.11800459 0.13768741 0.13829581
000170 34 46 a6 3e 71 22 2a 3e 9d c1 3b bd 4f a9 e4 bc
       0.32475436 0.16614701 -0.04583894 -0.027912764
000180 8f 07 99 3e 56 44 a1 3d e2 70 87 3e 5a 68 fd bd
       0.2988858 0.07874362 0.2645331 -0.12373419
000190 e9 1c 78 3e 7f 28 45 3e 84 d1 94 3e 0d 00 88 3e
       0.24229778 0.1925373 0.29066098 0.2656254
0001a0 17 d9 52 3d 66 2e 8b 3e 7d 15 b0 3e e5 2b a5 3e
       0.051476564 0.27183837 0.34391394 0.3226005
0001b0 b9 72 83 3e 67 ba ad 3d 21 59 0a 3f 32 05 1a be
       0.25673464 0.08482819 0.5404225 -0.15041044
0001c0 ba 91 b8 3e 64 ea 7b bd 12 16 91 3e 8b 5b d1 be
       0.3604868 -0.06150283 0.2833715 -0.40890154
0001d0 9c d0 c9 3d 0c 13 dd bd 9d b5 1c be 45 5d 42 bc
       0.09854242 -0.107946485 -0.15303655 -0.0118630575
0001e0 7b 5c 9b 3d 9f 43 9b bd c7 a9 2b 3e 78 8f 81 bd
       0.075859986 -0.07581257 0.16763984 -0.063261926
0001f0 92 b7 e6 3d 5f 7e 2a bf 10 87 c2 3e ad 67 0e 3d
       0.11265482 -0.66599077 0.3799367 0.03476684
